backendStuffs/model.tflite (tflite, 543368 bytes, 12 tensors)

arith.constant f4 [32]
00000000: 6f06 243d dc26 073d 7cf9 323d 9233 b53b
00000010: a11d 123c 2fd7 5bbd d30f bcbc b358 023d
00000020: 775a 28bd f9e0 37bc d1b6 b8bc ed23 c5bc
00000030: 0348 7b3c 0eb5 23bd da4c 1cbc 8e74 8d3c
00000040: 0115 6cbb 68b3 493d a711 b8bd e8be bcbc
00000050: 1e04 0d3d 7437 83bc 9550 9d3c f094 0a3c
00000060: 8860 d73c 27da 70bc fe80 aebc 373e 4fbc
00000070: d012 2a3d 089a 0cbc af0b 97bc 9c4e 103d
0.040045198 0.032996044 0.043694958 0.0055298293 0.008918197 -0.053672012 -0.022956764 0.03182287
-0.0411019 -0.011223071 -0.022548111 -0.024064982 0.015336993 -0.03996759 -0.009539807 0.017267492
-0.0036023261 0.04924336 -0.08987742 -0.02304025 0.034427755 -0.016017653 0.019203464 0.008458361
0.026291147 -0.014700449 -0.021301743 -0.0126491105 0.041521847 -0.008581646 -0.018438188 0.035231218

arith.constant1 f4 [32, 3, 3, 3]
00000000: f570 0abd e8f9 c4bd a32a b5bc 66ed d73d
00000010: 0b5e 01be c299 f0bc 62e7 febd cdf4 a83d
00000020: bc57 fc3c 62a1 73bb da7d 06be 4007 b039
00000030: 4f6d 0dbc 4c33 04be 5886 d93d b9e2 a0bd
00000040: 9f73 94bd 577c 0d3d 22f7 0d3e 4b2a 823d
00000050: 4b89 b7bd a6a5 10be 06e2 8abc 1274 f23d
00000060: 5251 cabc af92 6e3c 6d50 d33c 640b a63d
00000070: 6b63 f13d 77f3 ed3c 058e 8fbd 0101 9bbd
00000080: 0114 e13d 45d4 33bd 22b0 df3d d51a 02be
00000090: fb92 22bc be18 4bbc 160e ab3d a661 22bd
000000a0: bcb4 183e 2740 683c e356 4cbd 8ddc 0e3e
000000b0: 55f6 b2bd de64 f53d 290f 213d 8a21 e6bd
000000c0: 636c 15be fc35 69bd 7741 8fbd 9d3f e8bd
000000d0: 0237 67bd 7007 c7bb e69a c33d 20eb cf3d
000000e0: 3005 083d 43e0 3a3d 2135 5ebd 0351 013e
000000f0: 1e3a b1bd 1b64 bc3c 514b bb3d ac51 bfbd
00000100: 5ee1 0fbd 0dfb e0bd 2347 84bd fc68 db3d
00000110: 9a87 c43c 32d2 7e3d 0881 24bc d06f 5a3d
00000120: 960c 1f3c 32c3 0dbe a85b 243d 3205 ba3d
00000130: a8e2 f9bd ef9d 65bd 4a2c 9cbd cd97 e3bd
00000140: e1a8 283d d8ba 893d 98fd 84bd 0e9c bfbd
00000150: 448b 10be a81b cb3c 2de9 553c a508 7a3b
00000160: 4297 d6bd 740a 0fbd fe3c ebbd 3045 c8bd
00000170: e7d7 d93d c532 993d 4a62 163c 796a 81bd
00000180: cf60 dabd 2e37 133d 990b af3d 58fb dd3d
00000190: cf90 763d 8015 4c3d 0107 ddbd ed40 013e
000001a0: 4dce 3fbd 22db b03d 5999 413d 3574 603d
000001b0: b714 473c c108 84bd 22c7 cb3d d621 8dbd
000001c0: 4a88 a43b 1e22 9bbd 7689 a43d b33e 003e
000001d0: e021 d1bd 52bf 02be aab9 0e3d eaf5 28be
000001e0: 32da a6bd 4f1f abbd a28a 9a3d d9e4 43bd
000001f0: 2bf9 ddbd 4c0b 673d a143 e4bd af3e 563d
00000200: 0f4c 003e 5921 6fbd e0b7 953d 5187 103e
00000210: 3207 1f3e 1974 96bc 3bb7 933d 4fca 993d
00000220: f83a d73c adf3 f33d 157a 26bd 21a5 6bbb
00000230: b1db 913d 78ac 3d3d 486d b9bc fd9e 2b3e
00000240: 13c1 80bd 57a2 a9bd c5b1 db3d d6b9 1fbd
00000250: b1a8 bc3c 4404 353c c48f ec3d 283b 813d
00000260: e5d9 823d ec91 1fbe 8b1a b8bd 3334 a93d
00000270: d9b6 953c eb45 bd3c 2538 bfbd 279d 64bc
00000280: abe3 e4b9 a0a3 d6bc 14eb 61bd 07dc 9c3d
00000290: deca d8bd 4c6f 5d3b 26e9 0cb8 70b2 933d
000002a0: 564d a33d c3cd 39bd 7341 94bd c06c f93d
000002b0: 0287 92bd de2c 3dbd 0dc3 33bd caac 8abd
000002c0: a244 5ebd 9850 ef3d 34b3 eb3d e28c da3c
000002d0: e983 e63d cb27 de3c 8ade 753d 1309 f2bd
000002e0: 1bdd 53bd 49d4 4d3d d2ec 033d 391e a53d
000002f0: 3a53 793d e9b5 89bd e5ed d43d df74 933d
00000300: e11e 743d 20de c8bd 97da e23d 3730 babd
00000310: fba0 ffbd 75c5 023e cadf 363d 88c6 ffbd
00000320: c6de 9dbc 2aa4 d5bd 8934 ae3d 5304 093d
00000330: ea5f d3bd afca adbd 7c20 9b3d 4f9c 49bc
00000340: bfd9 f0bd 969d 8b3d 5533 ed3c e42e 32bd
00000350: ff58 93bc 5557 81bd 268a 113e 8828 1b3e
00000360: 101f 143d da19 d1bd 61ae d93d 9a04 11bd
00000370: 2f0c 47bd aa91 8b3d 96e6 0bbe 11be 0fbd
00000380: 020f 6c3d f75e edbd 9180 a4bd 2bce 3139
00000390: 3a82 053e 0693 cf3d 24fb 99bd c4c5 533d
000003a0: 528c 6e3d 2fee 7f3d 655d 923d 8a09 dbbd
000003b0: e165 42bd 1790 083e 89cb 043d c8fb 133e
000003c0: c538 8bbd eac7 193d 47b6 bf3a 1af9 803d
000003d0: d984 7abd 7e4a 03be f9b6 2fbd 99f1 ee3d
000003e0: b1d3 e63d d9f0 a83d 195e dabd 655c 06be
000003f0: cde0 70bb 4ee8 0fbc 701c 93bd 8b23 29bd
-0.03379913 -0.09617978 -0.022115057 0.10543327 -0.12633531 -0.029370192 -0.124464765 0.08249817
0.030803554 -0.003717505 -0.13133946 0.00033574738 -0.008632018 -0.12910193 0.10621327 -0.07855744
-0.072486155 0.034542408 0.13863805 0.06355723 -0.089617334 -0.1412569 -0.01695348 0.11838545
-0.02469698 0.014561339 0.025795186 0.08107641 0.117865406 0.029046757 -0.0700951 -0.07568551
0.109901436 -0.043903608 0.109222665 -0.12705548 -0.009922738 -0.012396036 0.08352296 -0.039643906
0.14912695 0.014175451 -0.04988755 0.13951321 -0.0873839 0.119821295 0.0393211 -0.11236866
-0.14592128 -0.05693625 -0.06994908 -0.11340258 -0.056448944 -0.0060738847 0.09551029 0.101522684
0.033208072 0.04562403 -0.054249886 0.1262856 -0.08653663 0.022996953 0.09145225 -0.093417495
-0.035127036 -0.10985384 -0.06458881 0.107133836 0.023990441 0.062212177 -0.010040529 0.05332929
0.009707591 -0.13843992 0.040126473 0.09083022 -0.122014344 -0.05605882 -0.07625635 -0.11112938
0.04117668 0.06725091 -0.06493682 -0.09355937 -0.14115626 0.024793461 0.013056082 0.0038152125
-0.10478069 -0.03492208 -0.11486243 -0.097788215 0.10636883 0.07480387 0.009178707 -0.06319136
-0.10662996 0.035941295 0.08547134 0.10838956 0.060196694 0.04982519 -0.107923515 0.12622423
-0.046827603 0.08635546 0.047265384 0.054798324 0.012150935 -0.06446982 0.09950091 -0.06891219
0.0050211297 -0.07574867 0.08034031 0.12523918 -0.10211539 -0.12768295 0.03484503 -0.16500059
-0.08147086 -0.08355581 0.07545973 -0.047825668 -0.10838541 0.056407258 -0.11145712 0.052305873
0.12529014 -0.058381412 0.07310462 0.14114119 0.15530089 -0.018365907 0.07212683 0.075092904
0.026273236 0.11911712 -0.04064377 -0.0035956579 0.07121981 0.046307057 -0.022635117 0.16759868
-0.06286826 -0.08282917 0.10727266 -0.038995586 0.023029657 0.01104838 0.115508586 0.06310111
0.06389216 -0.15583009 -0.08989438 0.08261909 0.018275665 0.023104629 -0.093368806 -0.013953484
-0.00043657175 -0.02620107 -0.05515583 0.076591544 -0.10585569 0.0033788262 -3.3595737e-05 0.072117686
0.07973735 -0.045362245 -0.07239046 0.121789455 -0.07154657 -0.046185367 -0.043887187 -0.06771238
-0.054264672 0.11685294 0.1150879 0.026678506 0.112556286 0.027118584 0.060026683 -0.11818137
-0.051724534 0.05025128 0.03220827 0.08062405 0.060870387 -0.0672415 0.10396937 0.07200026
0.05959976 -0.09807992 0.11076849 -0.090912275 -0.124818765 0.12770636 0.044647016 -0.12489039
-0.019271266 -0.104317024 0.08506114 0.03345139 -0.103210285 -0.084859245 0.07574555 -0.012305333
-0.11760282 0.068171665 0.028955141 -0.04350175 -0.017986773 -0.063154854 0.14212856 0.1515218
0.036162436 -0.10210009 0.10628963 -0.03540478 -0.048595604 0.068148926 -0.1366218 -0.03509337
0.0576315 -0.11590379 -0.080323346 0.00016956839 0.13037959 0.10135464 -0.075186044 0.051702276
0.05823929 0.06248301 0.0714672 -0.10695179 -0.04746044 0.13336216 0.03242067 0.14451516
-0.06797937 0.03754417 0.0014626466 0.06297512 -0.06116185 -0.12821385 -0.042899106 0.11667175
0.11270846 0.08249063 -0.10662479 -0.13121183 -0.0036755085 -0.008783413 -0.071831584 -0.041293662

arith.constant3 f4 [3]
00000000: 3015 573c 9c3d e03b 7bda 9ebc
0.01312761 0.006843282 -0.019391289

arith.constant4 f4 [512]
00000000: 65d5 863c bc58 bf3c 7990 2dbc 5e59 4abc
00000010: a254 093b 5c50 ffbb 47f8 da3a d4de 32bc
00000020: 941f 1fbc b83b 963b b253 a83c 7db5 37bc
00000030: 7ca7 ccb7 f22d 013d f9de abbb 6537 13bc
00000040: b005 b2bb 8ae5 27bc bf14 36bc 2a4f b6bb
00000050: a217 76bb 6b2a 55bc 530c b93c bfb8 593c
00000060: 0571 9b3c 881c 8039 2ad3 43b9 5b34 1abc
00000070: 6011 03bc 4685 0d3d b07b eb3c 41a5 953c
00000080: 0e82 2d3c e250 c7bb d996 f2bb 6140 ae3b
00000090: a402 a93b 8d8f bf3c 4afb 27bc 7735 9d3c
000000a0: 0339 fcbb 6041 933c dea0 853c 4f25 b23b
000000b0: 4be9 b2ba 6aa1 39bb 9e40 793c f525 45bc
000000c0: fe3c e6bb 00a1 5dbb 82cf 19bb d2e4 fc3b
000000d0: 9dec c13c 3d15 f33c b323 1abc a2a6 c4bb
000000e0: 49bb 8fbb a2e1 c1bb 4a55 1a3b 02eb 1dbc
000000f0: 811e 813c 793f 28bc 6583 20bb c72e 8c3a
00000100: 75f2 eb3c 8c59 8eba b82e ebbb be5f ca3b
00000110: 8aa9 eebb 43c8 03bb b8fe 20bc 6dad 5cbc
00000120: 3f63 03bc 0f55 a63c ba2f a8bb a0ac 853c
00000130: 0000 0000 fb5e 6a3c d677 60bc 39ce 4bbc
00000140: ac3d 9bba a5b5 0d3d 4c81 03bb eca5 4fbc
00000150: c1b3 2b3c 5b3b 473b 5706 8f3c 9cc4 81bc
00000160: df4b b23c a2e5 f5bb 3762 23bc d3b7 7e3a
00000170: 2a5e 1fbc 7403 0d3c 32f0 c53c bdc1 c6ba
00000180: d41e e63c 0000 0000 305a 9b3c 23f4 2cbb
00000190: 2f2e 23bc 582e 1ebc 5b81 923c a976 0f3c
000001a0: 86b8 233c 0220 d9bb b0fa 16ba c69d 563b
000001b0: 5840 e93b 31ae e53b 835d 193c 30c2 74bc
000001c0: 4609 0cbc 8fb5 5dbb c90e fa3a f698 6ebc
000001d0: 7a10 633c ec55 b83c d943 bf3a 581a 873c
000001e0: 4b6b 03bc 5b07 b3bb 51af a2bb 358b 033d
000001f0: 3e40 8f3c 735c 0f3c ddfb e7ba e202 eb3b
00000200: c96f 46bb 1635 683c 2551 19bc 4216 0a3c
00000210: 7ab9 743b 0ca0 163b c72c 6fbb df98 6ebc
00000220: 960c dfbb 50a7 d5bb c876 39bc 6664 36bb
00000230: ebba a23b 0dc8 063d 2c3a 983c 3537 093d
00000240: 2601 9abc b8f2 42bc d865 f7bb 4147 b03b
00000250: 3591 1bbc 7427 ed3c 0abe 5e3c 66e0 9d39
00000260: 4856 20bc e05c 413c d4df 3cbb f4c3 ae3b
00000270: 2fdb 71bc f24a 66bb 8971 e13b 088d 3cbc
00000280: 19c7 05bc 7b03 9d3c 76df 443c 1cf0 a3bb
00000290: af8f e73b eecd eebb afa6 2d39 9ef4 b73c
000002a0: 9e54 4dbc ca67 cf3c 4d4a f2bb 2f1c 1fbc
000002b0: f0a6 c4bb 92f2 943c 2c85 a4bb 3faa 0dbb
000002c0: 8a9c 40bc d9a3 52bc 911e 723c 759d 61ba
000002d0: 316d ffb9 6ff0 34bc f26b b63a a59b 0abc
000002e0: e4f8 753c 2d72 7a3c 41e7 5abb 9e38 fbbb
000002f0: 3c20 bd3b 0d21 1f3d c026 f63a 2a50 2cbc
00000300: 845d 91bb b36b 49bc 530a 30bc 1f08 85bb
00000310: 2dcd 39bb 274f a63c d0e4 f0bb 0a30 5dbc
00000320: 9e02 033d 2ddb e13c 56d1 e33c eca1 803b
00000330: fc3e eb3c e69a 1ebc fe77 d53c 255e 98bc
00000340: 9a7e 79bb 4667 cd3c 6a32 733c a336 d9bb
00000350: 68d3 61bc e8f6 48ba 1ebb 173c a4f8 febb
00000360: 0ae3 2b3c f1a7 aebb a520 5bbc 7efe c3bb
00000370: 6d98 82bc 270c ca3b 7cb0 d9b9 4360 df3c
00000380: 9459 13ba e6bd 44bc 0c6b 7fbb 5182 04bb
00000390: 9127 c93c a0f9 b53c 4e55 05bc 0000 0000
000003a0: ff0d ef3c d8ec 2cbc 6f41 053c e6f2 7fbb
000003b0: d853 f53c cc2c cc3b f585 4dbc 42e3 afbb
000003c0: b291 06bc 01ee eeba 33f3 c83c 7486 2fbc
000003d0: cfd0 0abc 25fa b23b 075b 53bc 73ce e03c
000003e0: c94f a33c 2dd3 ba3c 3ab7 02bc 221b 9a3c
000003f0: 0000 0000 5c29 7b3c 4f5b 1cbc 12b3 2f3b
0.016459176 0.023357742 -0.010593527 -0.012350408 0.0020954986 -0.007791562 0.0016706072 -0.010917384
-0.009712119 0.0045847557 0.020547722 -0.011212704 -2.4396686e-05 0.031537957 -0.0052450863 -0.008985375
-0.005432807 -0.0102475975 -0.011113345 -0.0055636363 -0.0037550707 -0.0130106015 0.022588884 0.013288676
0.01897479 0.0002443532 -0.00018675314 -0.009411897 -0.007999748 0.034550928 0.028745502 0.018267276
0.0105900895 -0.00608264 -0.0074032363 0.005317733 0.0051577855 0.02338388 -0.010252783 0.019190533
-0.007697226 0.01797551 0.016312059 0.0054365764 -0.0013649849 -0.002832497 0.01521316 -0.012032975
-0.007026314 -0.0033817887 -0.0023469632 0.007717707 0.023672396 0.029673213 -0.009407925 -0.0060013095
-0.00438634 -0.00591679 0.0023549371 -0.00963855 0.015761616 -0.010269039 -0.002449238 0.0010695093
0.028802136 -0.0010860427 -0.0071772 0.006175964 -0.007283394 -0.002010838 -0.009826355 -0.013469082
-0.008019268 0.020304231 -0.0051326426 0.016317666 0.0 0.014304872 -0.013700446 -0.012439304
-0.0011843941 0.034597058 -0.002006608 -0.012673836 0.010479868 0.003040037 0.017459078 -0.015840821
0.021764694 -0.007504181 -0.009972147 0.0009716723 -0.00972704 0.00860678 0.024162386 -0.001516394
0.028090872 0.0 0.018963903 -0.0026390634 -0.0099597415 -0.009654604 0.017883947 0.008756318
0.009992724 -0.00662613 -0.0005759401 0.003274785 0.007118266 0.0070092906 0.009360674 -0.014938876
-0.008547133 -0.0033830141 0.0019077893 -0.014562836 0.013858909 0.022501908 0.0014592364 0.016492054
-0.008021186 -0.0054635233 -0.004964747 0.03211518 0.017486688 0.008750069 -0.0017698962 0.0071719745
-0.0030279031 0.014172813 -0.009357725 0.008428158 0.0037341998 0.002298358 -0.0036495195 -0.0145628145
-0.0068069203 -0.0065201893 -0.011319824 -0.0027830838 0.00496613 0.032905627 0.018582426 0.033499915
-0.018799376 -0.011898689 -0.0075499825 0.005379588 -0.009495069 0.028949477 0.0135951135 0.00030112563
-0.009786196 0.011801928 -0.0028819935 0.005333418 -0.01476173 -0.0035139886 0.0068799895 -0.011508234
-0.008165144 0.019166699 0.012016168 -0.0050029885 0.007066689 -0.0072877323 0.0001656066 0.02245551
-0.012532381 0.025318045 -0.0073941112 -0.009711309 -0.006001346 0.018182073 -0.005020758 -0.0021616367
-0.011756072 -0.012856447 0.014777795 -0.0008606532 -0.00048718744 -0.011043652 0.0013917668 -0.00845996
0.015012953 0.015286011 -0.0033401998 -0.0076666614 0.005771665 0.03884988 0.0018779859 -0.0105171595
-0.0044361968 -0.012293744 -0.010744649 -0.004059806 -0.0028351054 0.020301415 -0.0073514953 -0.013500223
0.031984918 0.027570331 0.02780978 0.0039255526 0.028716557 -0.009680485 0.026058193 -0.01859958
-0.0038069845 0.025073659 0.014843563 -0.0066288277 -0.013783313 -0.00076661864 0.009260921 -0.007781105
0.010491142 -0.005330079 -0.013374482 -0.0059812656 -0.015941823 0.0061659995 -0.00041520956 0.02726758
-0.0005620953 -0.012008166 -0.0038973717 -0.0020219276 0.024555 0.022213757 -0.008138014 0.0
0.029181479 -0.010554515 0.008133276 -0.003905469 0.029947206 0.006230926 -0.012544145 -0.0053676674
-0.008213447 -0.001822889 0.024530029 -0.0107132085 -0.008472635 0.0054619485 -0.012900121 0.027442193
0.019935505 0.022805775 -0.007978255 0.018811766 0.0 0.015329685 -0.009543254 0.0026809615

arith.constant5 f4 [256]
00000000: 6eae 94bc 96d5 9b3a a63b a439 40f3 b7bb
00000010: 3598 d7bb 285d 83bb 0a4c 023b 4add cfbb
00000020: 3631 f53b 1ae5 d7bb 7e6a 613a 99bb 803b
00000030: 36c9 bfbc feb6 03bc 3625 03bc c696 b9bb
00000040: 68d0 b0bb dcb1 ac3a ff70 ee3b ad18 ccbb
00000050: f066 01bc 6054 17bc 6fe1 3fbc 2bf7 c63c
00000060: 8ef8 7aba 75cf a7bb 4530 15bc 66a4 c4bb
00000070: 8461 63bc 81d7 8f3b 7bce d1bb 90ad 8abc
00000080: 915a 8eba 0a8f efbb 9334 0c3c df06 d4bb
00000090: e310 ccbb 772b 35bc 73fd b63b 7cb0 e6bb
000000a0: 898f c4bb e969 9abc 2e8d ae3c 6b9f 89bb
000000b0: 4354 a8bb e465 29bb 0be2 0a3c e862 e9bb
000000c0: cd29 c8ba 4f05 f6bb 45fd 66bb 5684 24bc
000000d0: 535f db3a 0523 afbb 69bf 5dbc 5711 9ebc
000000e0: c077 edbb 2d48 d8bb ed05 0ebc 811b 18bc
000000f0: 48f9 dbbb 1fda c5bb a7b5 a7bb a9a2 c83c
00000100: 7232 083d 5206 94bc ba46 f1bb 3519 1fbb
00000110: 8f48 9fbb 15b4 5fbc 94b7 bfbc 45cc 7abc
00000120: 9a98 08bc fc22 a33c d6a2 07bc b881 00bd
00000130: 29b5 09bc fef7 e1bb 5f6e ecbb 6e03 06bc
00000140: e08f 373b 4180 1ebc 40fe fabb d5f0 74bc
00000150: 08ff 703c 451e c13c fc79 04bc 8878 53bb
00000160: b381 10bc 426a c4bb 03a1 e1bb 1477 8dbc
00000170: a8d7 1cbc 1cb4 cfbb 579a 08bb f176 23bc
00000180: fa18 2c3c f74a d7bb 47d5 02bc 098f c5bb
00000190: b9a3 2abc 61d8 953c 569d 34bc d8f1 c7bb
000001a0: 8d36 c13c 4833 f7bb c7df 25bc b5dc 5ebc
000001b0: 70e1 92b7 81bc 873a 5acf f8bb d6af 383c
000001c0: 3122 6b3c 56a7 03bc 89d9 fcbb b218 4cbc
000001d0: 63bf 94bc 4102 9abc 15bd 8dbb a53d a53b
000001e0: 8783 adba 3d0c 593b ea2f c8bb 3652 7abc
000001f0: ff11 6cba f094 f63b 7cda e2bb f45e 96bb
00000200: 4919 723b 8af6 12bb d37f cbbb bac3 e6bb
00000210: fada 693c f8d3 8c3c 79f2 e2bb f7d7 0fbb
00000220: 5f4a ec3b c8ba 9bbc bf0d 9e3c e80b 963c
00000230: 65e7 bfbb 4011 05bc c74e d9bc 4161 d6bb
00000240: 94af 0bbc 925e 88bc c297 eabb 11b4 05bc
00000250: 6646 f3bb fda6 12bc 113f c5bb 1f75 d1bb
00000260: edef f7bb 5a1b 4b3c 041c 993c e90a b9bb
00000270: b235 51bc e49d 9f3c 5cb5 adbb 464e 1abb
00000280: 3136 d03a 0d5d 12bc ae7a 98ba a8ba 16bc
00000290: 3e2b 893c 4912 7ebc d788 3bbc 0ffb 463c
000002a0: aa7d b23c 1a51 f9bb bb92 38bc 7657 653c
000002b0: 6109 713b 3fba 16bc 5042 abbb 6e80 363c
000002c0: e0d4 df3b e72f b9bb 5ab3 96b8 cb03 fbbb
000002d0: 4a75 60bc 42c0 ed3c ebea 063d 48c9 193c
000002e0: 2a68 d63c 9696 753c 0af2 8bbb cfa2 683b
000002f0: 1bf2 953c af2b f2bb 621e c8bb 9309 1cbc
00000300: 5af0 8ebb 0543 c63b 2e7e 0cbc f8a0 203c
00000310: 0a19 99bc 88a0 ffbb ae1b 8f3b 0959 17bc
00000320: ff49 61bc 2684 573c 2181 8fbc 7d5a 6fbc
00000330: 20ab 19bc 21ef afbb a823 d23b 836d 3eb9
00000340: 7589 973c c4d9 c4ba d7c6 57bc 2091 06bb
00000350: eac8 c6bb 6b6a 24bc 1e2f a23c 9f39 1dbc
00000360: 6323 6cbc c77f 15bc 3fbf fdbb 4564 b63c
00000370: 6b68 18bc f79a ddbb 96db aaba fa65 85bb
00000380: 5515 a5bb ac02 84bc 23e6 823b fc82 d2bb
00000390: 0268 403c a27e d9bc 1775 5ebc 22c1 ba3c
000003a0: a479 afbb 9d81 c4bb c790 c4bb ecd1 94bc
000003b0: 51f3 e3bb f0e4 6dbc 82d2 e8bb 5caa 54bc
000003c0: f970 85bc fa81 a8bc e538 53bc 1ecb ba3c
000003d0: 1e45 8abb 6590 89bc 5339 26bc 7bb6 2dbc
000003e0: c128 e4bb 931d 33bc 99ab cdbb 0fee bfba
000003f0: 3760 06bb b049 c0bb 22d8 ea39 048d 0cbc
-0.01814958 0.0011889215 0.0003132496 -0.0056137145 -0.006579424 -0.004008908 0.0019881749 -0.0063435184
0.007482673 -0.0065885903 0.00085989374 0.0039286134 -0.023411375 -0.008039234 -0.008004477 -0.0056637255
-0.0053959377 0.0013175565 0.007276654 -0.0062285275 -0.007898077 -0.009236425 -0.011711462 0.02428778
-0.00095737807 -0.0051211664 -0.009105747 -0.006001043 -0.01387823 0.0043897037 -0.006402788 -0.016928464
-0.0010860731 -0.0073107528 0.008557457 -0.0064705457 -0.006227599 -0.011057726 0.0055844127 -0.0070400815
-0.005998556 -0.01884933 0.021307554 -0.0041999123 -0.005136998 -0.0025848085 0.008476744 -0.0071223862
-0.0015271247 -0.007507957 -0.0035246175 -0.010041317 0.0016736783 -0.005344751 -0.013534405 -0.019295378
-0.0072469413 -0.006600401 -0.008668405 -0.009283901 -0.0067130663 -0.006037965 -0.00511809 0.024491625
0.033251233 -0.01806942 -0.0073631676 -0.00242765 -0.0048609446 -0.013653775 -0.023402967 -0.015307491
-0.008337164 0.019914143 -0.008278569 -0.03137371 -0.008405008 -0.006896018 -0.0072153057 -0.008179529
0.002800934 -0.009674133 -0.0076597035 -0.014949997 0.014709242 0.023574004 -0.008085724 -0.0032267887
-0.008819985 -0.005994112 -0.006885649 -0.017268695 -0.009572901 -0.0063386094 -0.0020843947 -0.009977088
0.010504002 -0.006570216 -0.00798542 -0.006029014 -0.010415011 0.018291654 -0.01102384 -0.006101828
0.023585582 -0.007543955 -0.010124153 -0.013602425 -1.7509534e-05 0.0010355861 -0.0075930776 0.011272391
0.014351414 -0.008035501 -0.007716362 -0.01245706 -0.018157667 -0.018799903 -0.004325519 0.005042749
-0.0013238051 0.0033118867 -0.0061092274 -0.01527839 -0.0009005367 0.007525079 -0.006923018 -0.004588956
0.003694134 -0.002242478 -0.006210306 -0.0070423754 0.0142733995 0.017190918 -0.0069258776 -0.0021948793
0.007211014 -0.019009963 0.019293664 0.018316224 -0.005856442 -0.0081217885 -0.026526822 -0.0065423553
-0.008525748 -0.016646657 -0.007159204 -0.008160607 -0.0074241636 -0.008950946 -0.006019481 -0.0063921358
-0.007566443 0.012396658 0.018690117 -0.0056470525 -0.01276915 0.019484468 -0.0053011607 -0.002354519
0.0015885291 -0.008933318 -0.0011633241 -0.009199776 0.016744252 -0.015507289 -0.011446199 0.012144818
0.021788437 -0.007608545 -0.011265452 0.013997903 0.0036779272 -0.009199678 -0.005226411 0.011139018
0.0068307966 -0.0056514624 -7.185964e-05 -0.0076603643 -0.013699839 0.02902234 0.03293888 0.009386368
0.026172716 0.014989516 -0.0042707967 0.0035497432 0.018303921 -0.0073904614 -0.0061071375 -0.009523767
-0.004362148 0.00605047 -0.008575005 0.009804003 -0.018688697 -0.0078011192 0.0043673133 -0.009237536
-0.013750552 0.013154065 -0.017517628 -0.014608976 -0.009379178 -0.0053690826 0.006412942 -0.00018160608
0.018498162 -0.0015018512 -0.013169966 -0.0020533279 -0.0060664313 -0.010035138 0.019797858 -0.0095962575
-0.014412734 -0.009124703 -0.0077437456 0.02226461 -0.009302239 -0.006762858 -0.0013035412 -0.0040709944
-0.0050379434 -0.016114555 0.0039947196 -0.006424306 0.011743547 -0.026549641 -0.013577721 0.022797171
-0.005355077 -0.0059968964 -0.005998704 -0.018166505 -0.006956496 -0.014519915 -0.0071051726 -0.01298007
-0.016289221 -0.02056979 -0.012891983 0.022801932 -0.004219665 -0.016792485 -0.010145503 -0.010602589
-0.006962866 -0.010932344 -0.0062765596 -0.001464309 -0.0020504126 -0.0058681592 0.0004479299 -0.008578543

arith.constant6 f4 [128]
00000000: e36f 04bc a010 0cbc a3c0 25bc 9701 243b
00000010: 9a90 fdbb 3d3e 20bc d8b1 62bc a30d c9bb
00000020: 26d4 84bc e407 4dbc 82e7 ccba 26aa bebb
00000030: ceca 4d3c 31d6 86bc e864 32bc d20d ecbb
00000040: 735b 9cbc 3051 2abc 848a cc3a 9dea 08bc
00000050: ee9f 3dbc 413f 8b39 b817 393c 5517 4bbc
00000060: 8042 2bbc 1749 ad3b b84f 9cbc 9226 02bc
00000070: f686 6abc e7e7 0abc dfe0 e4bb a26a 89bc
00000080: d9f1 66bc 556d 45bb 1134 5ebc e7a9 09bd
00000090: bfbf f6bc 4dd7 f4bb 24ef fcbb 2e7a 5ebc
000000a0: cdbc 98bc cb83 dabb 8611 31bc 4e2d a93b
000000b0: a92f 1c3c 2f46 5f3b 3ba9 27bc 921a 56bc
000000c0: 41db 0bbc ea6c 16bc 3e23 27bc 73e6 08bc
000000d0: e6e1 91ba 6431 52bc 2105 91bc 9501 013b
000000e0: 0bb3 76bc 88eb b03b 6ea2 cabb bda2 39bc
000000f0: 9047 f7bb c5a6 70bc 1542 d03b f5f0 563b
00000100: de05 14bc 7e50 26bc c786 c8bb 53ec 56bc
00000110: ebd6 5bbc 36d2 4dbc 3a2f 2abc baf2 a33a
00000120: 06d4 673c cd7e 31ba 522a 143b 2379 febb
00000130: 969d d439 8954 0b3c bca9 27bc a5c6 63bc
00000140: 5df6 3fbc 9b9c 2fbc d698 9abb 5b38 acbb
00000150: cc38 48bc 1ee0 36bc 45c5 46bc 60ed 4ebc
00000160: c29b 0cbc aa05 e2bc 44c6 f6bb 8585 00bc
00000170: 0247 54bc d772 88bc ac65 febb 46a1 61bc
00000180: 516c 97bc 57d9 91bb 3075 2abc f359 3fbc
00000190: 4bba 97bc 53c8 98bb 02e6 e2bb 7626 7abc
000001a0: 3d52 75bc a02e 42bc 7f51 5dbc daa2 8dbc
000001b0: 598c fabb 87af 5e3c a4d1 97ba 36da 69bc
000001c0: 174d acbb 4d36 8bbc d27a 3dbc 613d 01bc
000001d0: 80df 54bc 088a 68bc efbf 03bc 10b7 15bc
000001e0: f6b3 ddbb cde2 d9bb 8947 87bc e4a7 8cbb
000001f0: 068f 14bc e7f7 2cbc 630b 45bc d350 cdbb
-0.0080833165 -0.008548886 -0.010116729 0.0025025362 -0.007738185 -0.009780464 -0.013836347 -0.006135659
-0.016214442 -0.012514088 -0.001563296 -0.005818623 0.012560559 -0.016459556 -0.010888316 -0.007203796
-0.019086575 -0.010395333 0.0015605246 -0.008356717 -0.011573775 0.00026559274 0.011297159 -0.0123956995
-0.010452867 0.005288254 -0.019080982 -0.007943766 -0.014314404 -0.008478141 -0.0069848145 -0.01677448
-0.014095747 -0.0030124981 -0.013562218 -0.033609297 -0.030120729 -0.007471955 -0.0077189375 -0.013578935
-0.018644715 -0.006668543 -0.010807401 0.0051628714 0.009532847 0.0034068932 -0.010233219 -0.013067858
-0.008536161 -0.009181241 -0.0102012735 -0.008355725 -0.0011129945 -0.012829158 -0.017702641 0.001968478
-0.015057336 0.0053991713 -0.006183914 -0.011330304 -0.0075463727 -0.014688198 0.006355534 0.003279743
-0.009034602 -0.010151027 -0.0061195823 -0.0131178675 -0.01341794 -0.012562325 -0.010387236 0.0012508251
0.014149671 -0.0006770909 0.0022608233 -0.0077659055 0.00040553202 0.0085040415 -0.010233339 -0.013902341
-0.011716452 -0.01071849 -0.0047179265 -0.0052557415 -0.012220573 -0.011161832 -0.012131994 -0.012629837
-0.008582057 -0.027590591 -0.0075309593 -0.007844334 -0.012956383 -0.016656322 -0.007763585 -0.013771361
-0.018484266 -0.0044509578 -0.010403916 -0.01167916 -0.018521449 -0.0046625524 -0.0069243917 -0.015267959
-0.01497322 -0.011851937 -0.0135082 -0.017289568 -0.0076461253 0.013591654 -0.0011582864 -0.014273217
-0.0052582133 -0.016993666 -0.011564927 -0.007888169 -0.01299274 -0.014193065 -0.008041366 -0.009137884
-0.006765838 -0.006649351 -0.016513603 -0.004292475 -0.009067303 -0.010557151 -0.012026641 -0.0062657385

arith.constant7 f4 [64]
00000000: d1ad 303a bbc2 95bc 1a5f 073d 58b5 633a
00000010: f180 66bc f4ed 4abb 9404 d0bb 3031 8fbb
00000020: bb08 74bb d33f 3b3a cbae f4bb 69df e6ba
00000030: 6f3f 70bc ae7a dfbb edc5 da39 bdf8 523c
00000040: c4b8 44bb 363f f7bb af1d 33bc 7306 49bc
00000050: b9c7 3cbb 6032 6abc 51e5 14bc 9997 97bb
00000060: 3099 8bbc 94a5 6d3c 59c3 56bb ad8e 0bbd
00000070: 50e0 c5bc 12de c43b 5a79 38bc 2c64 643c
00000080: 391c 6cbc 21a1 4fbc 15cc c5bc 01dc debb
00000090: fdd0 44bc dfc3 f2bb 3546 40ba eb0e 00bd
000000a0: d994 8e3c 2411 5bbc 4c2d e1bb fafd 21bc
000000b0: ea18 773a c5e6 d8ba 79e6 61bc a99f 10bd
000000c0: 42eb 79bb 2796 28bc e8b7 4dbc 3f33 afbb
000000d0: ccea 76bb abab c1bb 3165 1ebc 5767 88bb
000000e0: 2334 943b 0826 5abb bc83 b1bc e160 f63b
000000f0: 7d0b 0b3b 0370 94ba acd9 263c e0e7 6fbb
0.0006739768 -0.018281331 0.03304968 0.0008686385 -0.014068828 -0.0030964585 -0.006348202 -0.0043698773
-0.003723665 0.00071429944 -0.007467126 -0.0017614189 -0.014663561 -0.0068200445 0.00041727666 0.012876687
-0.0030017355 -0.007545377 -0.01093237 -0.012269604 -0.0028805567 -0.014294237 -0.009087876 -0.004626226
-0.017040819 0.014504809 -0.0032770245 -0.034071613 -0.024154812 0.006007918 -0.011259401 0.013939898
-0.014411026 -0.0126726935 -0.024145165 -0.006801129 -0.012012717 -0.0074086036 -0.00073346804 -0.031264227
0.01740496 -0.013370786 -0.006871855 -0.009887213 0.0009426015 -0.0016548267 -0.013787859 -0.035308514
-0.003813461 -0.010289705 -0.012556054 -0.005346685 -0.003767657 -0.005910357 -0.009667681 -0.0041627097
0.0045228167 -0.0033286829 -0.021669261 0.007518873 0.0021216564 -0.0011324886 0.010183733 -0.0036606714

tfl.pseudo_qconst i1 [256, 3, 3, 128]
00000000: f947 faea fff2 fb63 0533 f9e6 cd1d 3973
00000010: 7019 e41c 26fb 2c3f 15f5 2509 1ae7 e023
00000020: 743e ddf0 106f 0334 44e5 0405 e51d 2343
00000030: f0f5 23ee 0150 290f 651a d51c 5bfb 11fe
00000040: f11a fa2d 11fc ee42 cee2 f0cb f31e f447
00000050: e575 1d3d 1534 110a 11ef 402d 0102 d807
00000060: f543 095e db28 161e 4001 2e12 17ee fbf6
00000070: 0769 dc43 09dc c7ee 1b08 fa3c 12dc 112b
00000080: ef13 1be8 0cef ec39 101a e410 dc1c 5246
00000090: 4bd9 17f4 46de ca5e f913 2011 42f9 e01c
000000a0: 652d 1206 e72a 1e1b 2213 080e 17cf 4167
000000b0: 2638 1b04 0831 50f6 22c9 ef31 25d7 1619
000000c0: ee13 eb40 d200 d930 f1af 2ae6 da12 193f
000000d0: 037d f61c f856 e31a 1511 1c08 03f5 eee1
000000e0: ef4f 2021 2251 2b3a 1109 1d07 0510 0608
000000f0: f143 0827 dd1b ec19 0c08 f451 e7f8 3b15
-7 71 -6 -22 -1 -14 -5 99
5 51 -7 -26 -51 29 57 115
112 25 -28 28 38 -5 44 63
21 -11 37 9 26 -25 -32 35
116 62 -35 -16 16 111 3 52
68 -27 4 5 -27 29 35 67
-16 -11 35 -18 1 80 41 15
101 26 -43 28 91 -5 17 -2
-15 26 -6 45 17 -4 -18 66
-50 -30 -16 -53 -13 30 -12 71
-27 117 29 61 21 52 17 10
17 -17 64 45 1 2 -40 7
-11 67 9 94 -37 40 22 30
64 1 46 18 23 -18 -5 -10
7 105 -36 67 9 -36 -57 -18
27 8 -6 60 18 -36 17 43
-17 19 27 -24 12 -17 -20 57
16 26 -28 16 -36 28 82 70
75 -39 23 -12 70 -34 -54 94
-7 19 32 17 66 -7 -32 28
101 45 18 6 -25 42 30 27
34 19 8 14 23 -49 65 103
38 56 27 4 8 49 80 -10
34 -55 -17 49 37 -41 22 25
-18 19 -21 64 -46 0 -39 48
-15 -81 42 -26 -38 18 25 63
3 125 -10 28 -8 86 -29 26
21 17 28 8 3 -11 -18 -31
-17 79 32 33 34 81 43 58
17 9 29 7 5 16 6 8
-15 67 8 39 -35 27 -20 25
12 8 -12 81 -25 -8 59 21

tfl.pseudo_qconst1 i1 [128, 3, 3, 64]
00000000: e590 55d5 300c e6b5 f70e 87d3 e488 a6c8
00000010: ba4d 984d 49f2 16ac 9b03 4759 13e3 de47
00000020: 4f26 a33b 88d4 5007 3f4a 5657 a8cd 5927
00000030: 43db e4eb 060d ca85 07f2 beee d859 0115
00000040: 89c9 1a85 ffd8 fdf7 c946 d8b1 624c 7105
00000050: 3e3b daa1 c4b0 11e5 8421 9e5c c24c cec5
00000060: 890b 615d e0df 1152 d5f5 0fb6 0dcc 4aa1
00000070: a950 e4ef af27 51b6 55ef 5df3 a40c 56b6
00000080: f940 d408 fe98 a40c 1467 0429 543b 34a1
00000090: 4882 90da 285e 89b3 e0c8 bbb4 f9de d234
000000a0: 82d6 3317 d336 4065 d499 e327 caff 1964
000000b0: 462b db88 bd93 bc01 4f43 b34b f714 b350
000000c0: 47cc 3d0a 511a 1fe6 539c 5c94 d0f2 fa98
000000d0: b42b d092 3907 dee9 67f7 52a8 0e0c ddfb
000000e0: 12ed 5b53 20a2 e498 d08f 38fb 6154 cee5
000000f0: 094a 40a4 93f8 d51d 9fe7 af9a 1f8c 0517
-27 -112 85 -43 48 12 -26 -75
-9 14 -121 -45 -28 -120 -90 -56
-70 77 -104 77 73 -14 22 -84
-101 3 71 89 19 -29 -34 71
79 38 -93 59 -120 -44 80 7
63 74 86 87 -88 -51 89 39
67 -37 -28 -21 6 13 -54 -123
7 -14 -66 -18 -40 89 1 21
-119 -55 26 -123 -1 -40 -3 -9
-55 70 -40 -79 98 76 113 5
62 59 -38 -95 -60 -80 17 -27
-124 33 -98 92 -62 76 -50 -59
-119 11 97 93 -32 -33 17 82
-43 -11 15 -74 13 -52 74 -95
-87 80 -28 -17 -81 39 81 -74
85 -17 93 -13 -92 12 86 -74
-7 64 -44 8 -2 -104 -92 12
20 103 4 41 84 59 52 -95
72 -126 -112 -38 40 94 -119 -77
-32 -56 -69 -76 -7 -34 -46 52
-126 -42 51 23 -45 54 64 101
-44 -103 -29 39 -54 -1 25 100
70 43 -37 -120 -67 -109 -68 1
79 67 -77 75 -9 20 -77 80
71 -52 61 10 81 26 31 -26
83 -100 92 -108 -48 -14 -6 -104
-76 43 -48 -110 57 7 -34 -23
103 -9 82 -88 14 12 -35 -5
18 -19 91 83 32 -94 -28 -104
-48 -113 56 -5 97 84 -50 -27
9 74 64 -92 -109 -8 -43 29
-97 -25 -81 -102 31 -116 5 23

tfl.pseudo_qconst2 i1 [64, 3, 3, 32]
00000000: 37ce 72fe 56c2 2b24 cf45 e441 32c1 22c1
00000010: 3fe3 0938 d1af 265b f9fb 9216 19eb a42b
00000020: 6e0e 350e feb8 277f ea50 cfc6 1bc7 c8ea
00000030: 29ce 30ed 4314 433e 54ad 0430 f3fe 374f
00000040: 0b10 4c1f 0040 4323 b1b2 ae31 d21f 0554
00000050: fe23 08e7 ceb3 2c3e f18d 2bf3 3ed6 c24d
00000060: 242a 0d41 f901 ba56 d133 001c 280d adc1
00000070: bc51 2fe1 fa49 5acf bcc3 c4d0 2131 a24e
00000080: 0409 16e8 5ab1 f249 c223 3138 f5ca b708
00000090: 2b19 fb0d f9d9 3938 09b0 933e dba8 29dd
000000a0: 4a51 7d0a 4333 0f3c f335 28e7 bf1f 35d5
000000b0: d11a 1534 f22c 9832 f498 c22d 4bb2 e640
000000c0: d52a 2c33 d031 f533 aac2 1927 10c8 e6b5
000000d0: 50ec f0c9 b3f1 efd5 10d6 b1b7 2825 9f17
000000e0: 63c1 79dc 2fc9 cd38 c519 350d 05c4 0e1e
000000f0: 05d3 212b 0c3b 1a4d dbd8 c53c 19a3 ae05
55 -50 114 -2 86 -62 43 36
-49 69 -28 65 50 -63 34 -63
63 -29 9 56 -47 -81 38 91
-7 -5 -110 22 25 -21 -92 43
110 14 53 14 -2 -72 39 127
-22 80 -49 -58 27 -57 -56 -22
41 -50 48 -19 67 20 67 62
84 -83 4 48 -13 -2 55 79
11 16 76 31 0 64 67 35
-79 -78 -82 49 -46 31 5 84
-2 35 8 -25 -50 -77 44 62
-15 -115 43 -13 62 -42 -62 77
36 42 13 65 -7 1 -70 86
-47 51 0 28 40 13 -83 -63
-68 81 47 -31 -6 73 90 -49
-68 -61 -60 -48 33 49 -94 78
4 9 22 -24 90 -79 -14 73
-62 35 49 56 -11 -54 -73 8
43 25 -5 13 -7 -39 57 56
9 -80 -109 62 -37 -88 41 -35
74 81 125 10 67 51 15 60
-13 53 40 -25 -65 31 53 -43
-47 26 21 52 -14 44 -104 50
-12 -104 -62 45 75 -78 -26 64
-43 42 44 51 -48 49 -11 51
-86 -62 25 39 16 -56 -26 -75
80 -20 -16 -55 -77 -15 -17 -43
16 -42 -79 -73 40 37 -97 23
99 -63 121 -36 47 -55 -51 56
-59 25 53 13 5 -60 14 30
5 -45 33 43 12 59 26 77
-37 -40 -59 60 25 -93 -82 5

tfl.pseudo_qconst3 i1 [3, 512]
00000000: f11e 18ec dee6 2baa acb6 3bc9 2810 deb0
00000010: d01f ed46 ccfa 3153 f010 c431 dd36 5206
00000020: b0bf 14be b146 a71f c75d 8112 f5ad 0dfd
00000030: e705 bcd9 4d49 d23b ad02 efb7 21db 10ee
00000040: 45c0 1201 dcb7 c841 eb4c dea1 e7ce 0b2d
00000050: 1910 bbd0 f602 320c 4a41 ed25 df11 f831
00000060: 2bb9 4fe4 3f43 e855 f3e9 b1bc edd6 b4ea
00000070: 02c1 d135 1cd6 d657 1744 2033 0dc6 c9f5
00000080: 1057 e0f3 b2c0 d8c5 3fcd 39ad 394b fb0c
00000090: bfde 19d1 d42f cc2a cc4a 3dc9 deeb 2714
000000a0: f14a e1e2 57eb f119 0d08 ead2 2b01 c00e
000000b0: 22c1 35d3 492f c7be 0bb6 c7cf 2947 d416
000000c0: b4d5 a440 200c 3929 0843 3bdc 5a14 3f04
000000d0: cc44 5716 30ec 4004 172a bdb2 e91e ab2f
000000e0: f111 30bb f129 c32a 4f3a 9823 0904 e036
000000f0: e43d 252c 2dcb 1230 cc30 de19 48fb 4545
-15 30 24 -20 -34 -26 43 -86
-84 -74 59 -55 40 16 -34 -80
-48 31 -19 70 -52 -6 49 83
-16 16 -60 49 -35 54 82 6
-80 -65 20 -66 -79 70 -89 31
-57 93 -127 18 -11 -83 13 -3
-25 5 -68 -39 77 73 -46 59
-83 2 -17 -73 33 -37 16 -18
69 -64 18 1 -36 -73 -56 65
-21 76 -34 -95 -25 -50 11 45
25 16 -69 -48 -10 2 50 12
74 65 -19 37 -33 17 -8 49
43 -71 79 -28 63 67 -24 85
-13 -23 -79 -68 -19 -42 -76 -22
2 -63 -47 53 28 -42 -42 87
23 68 32 51 13 -58 -55 -11
16 87 -32 -13 -78 -64 -40 -59
63 -51 57 -83 57 75 -5 12
-65 -34 25 -47 -44 47 -52 42
-52 74 61 -55 -34 -21 39 20
-15 74 -31 -30 87 -21 -15 25
13 8 -22 -46 43 1 -64 14
34 -63 53 -45 73 47 -57 -66
11 -74 -57 -49 41 71 -44 22
-76 -43 -92 64 32 12 57 41
8 67 59 -36 90 20 63 4
-52 68 87 22 48 -20 64 4
23 42 -67 -78 -23 30 -85 47
-15 17 48 -69 -15 41 -61 42
79 58 -104 35 9 4 -32 54
-28 61 37 44 45 -53 18 48
-52 48 -34 25 72 -5 69 69

tfl.pseudo_qconst4 i1 [512, 256]
00000000: fe97 cebf 53b9 5fc5 6dbd bf56 0cb8 f314
00000010: 20e7 14a8 2ee2 102f 1be2 3cca dfad c2b2
00000020: 06ee fdba b4f7 0eac f722 241d e331 03de
00000030: 2102 c44b eccd 1044 b742 53f1 a7ae 4e05
00000040: 45e6 00ff f94a fd59 f8f6 4fc1 2946 38de
00000050: 4d52 de44 5605 d7f5 4324 1922 e11d d413
00000060: f8c2 813f 3eb6 abad f148 bde4 bbe0 f9d4
00000070: f747 cac7 fee2 ff4e 5f19 c7b6 a805 d902
00000080: b531 1eed 1246 a4ec c023 fa13 2c4a 521f
00000090: dbd3 3f2e efca 4ab1 980e 2600 b975 1700
000000a0: 1b48 563a 14bc e0cf 36e5 ea1a adfa fbef
000000b0: 4401 af52 3a57 1dfc 5e1c 9ce1 03f4 d444
000000c0: ea21 530b e708 3db1 e1bf b7d3 d4f2 c40b
000000d0: deed 4956 48ef d3eb ed07 2834 b8be de1c
000000e0: df34 462d 0e4a 1af5 0cb6 22a5 eac7 e123
000000f0: ff26 0c60 ceaa e239 284d 3cf3 4855 ab22
-2 -105 -50 -65 83 -71 95 -59
109 -67 -65 86 12 -72 -13 20
32 -25 20 -88 46 -30 16 47
27 -30 60 -54 -33 -83 -62 -78
6 -18 -3 -70 -76 -9 14 -84
-9 34 36 29 -29 49 3 -34
33 2 -60 75 -20 -51 16 68
-73 66 83 -15 -89 -82 78 5
69 -26 0 -1 -7 74 -3 89
-8 -10 79 -63 41 70 56 -34
77 82 -34 68 86 5 -41 -11
67 36 25 34 -31 29 -44 19
-8 -62 -127 63 62 -74 -85 -83
-15 72 -67 -28 -69 -32 -7 -44
-9 71 -54 -57 -2 -30 -1 78
95 25 -57 -74 -88 5 -39 2
-75 49 30 -19 18 70 -92 -20
-64 35 -6 19 44 74 82 31
-37 -45 63 46 -17 -54 74 -79
-104 14 38 0 -71 117 23 0
27 72 86 58 20 -68 -32 -49
54 -27 -22 26 -83 -6 -5 -17
68 1 -81 82 58 87 29 -4
94 28 -100 -31 3 -12 -44 68
-22 33 83 11 -25 8 61 -79
-31 -65 -73 -45 -44 -14 -60 11
-34 -19 73 86 72 -17 -45 -21
-19 7 40 52 -72 -66 -34 28
-33 52 70 45 14 74 26 -11
12 -74 34 -91 -22 -57 -31 35
-1 38 12 96 -50 -86 -30 57
40 77 60 -13 72 85 -85 34
